…
<span id="cb10-3"><span class="co" style="color: #5E5E5E;
background-color: null;
font-style: inherit;"># 모든 가중치의 평균을 0, 분산을 0.02로 초기화</span></span>
<span id="cb10-4">netG.<span class="bu" style="color: null;
background-color: null;
font-style: inherit;">apply</span>(weights_init)</span>
<span id="cb10-5"></span>
<span id="cb10-6"><span class="co" style="color: #5E5E5E;
background-color: null;
font-style: inherit;"># 모델 구조 확인</span></span>
<span id="cb10-7">netG</span></code></pre></div>
<div class="cell-output cell-output-display" data-execution_count="8">
<pre><code>Generator(
  (main): Sequential(
    (0): ConvTranspose2d(100, 512, kernel_size=(4, 4), stride=(1, 1))
    (1): BatchNorm2d(512, eps=1e-05, momentum=0.1, affine=True, track_running_stats=True)
    (2): ReLU(inplace=True)
    (3): ConvTranspose2d(512, 256, kernel_size=(4, 4), stride=(2, 2), padding=(1, 1), bias=False)
    (4): BatchNorm2d(256, eps=1e-05, momentum=0.1, affine=True, track_running_stats=True)
    (5): ReLU(inplace=True)
    (6): ConvTranspose2d(256, 128, kernel_size=(4, 4), stride=(2, 2), padding=(1, 1), bias=False)
    (7): BatchNorm2d(128, eps=1e-05, momentum=0.1, affine=True, track_running_stats=True)
    (8): ReLU(inplace=True)
    (9): ConvTranspose2d(128, 64, kernel_size=(4, 4), stride=(2, 2), padding=(1, 1), bias=False)
    (10): BatchNorm2d(64, eps=1e-05, momentum=0.1, affine=True, track_running_stats=True)
    (11): ReLU(inplace=True)
    (12): ConvTranspose2d(64, 3, kernel_size=(4, 4), stride=(2, 2), padding=(1, 1), bias=False)
    (13): Tanh()
  )
)</code></pre>
</div>
</div>
</section>
</section>
<section id="구분자" class="level3">
<h3 class="anchored" data-anchor-id="구분자">구분자</h3>
<ul>
<li>입력: <img src="https://latex.codecogs.com/png.latex?3%20%5Ctimes%2064%20%5Ctimes%2064"></li>
<li>Conv2d, BatchNorm2d, LeakyReLU로 데이터를 가공
<ul>
<li>stride를 합성곱 계층에서 적용하는데 논문에서는 스스로 pooling을 학습하기 때문에 pooling 계층을 넣지 않아도 효과가 좋았다고 한다.</li>
…
<div class="sourceCode cell-code" id="cb13" style="background: #f1f3f5;"><pre class="sourceCode numberSource python number-lines code-with-copy"><code class="sourceCode python"><span id="cb13-1">netD <span class="op" style="color: #5E5E5E;
background-color: null;
font-style: inherit;">=</span> Discriminator(ngpu).to(device)</span>
<span id="cb13-2">netD.<span class="bu" style="color: null;
background-color: null;
font-style: inherit;">apply</span>(weights_init)</span>
<span id="cb13-3">netD</span></code></pre></div>
<div class="cell-output cell-output-display" data-execution_count="10">
<pre><code>Discriminator(
  (main): Sequential(
    (0): Conv2d(3, 64, kernel_size=(4, 4), stride=(2, 2), padding=(1, 1), bias=False)
    (1): LeakyReLU(negative_slope=0.2, inplace=True)
    (2): Conv2d(64, 128, kernel_size=(4, 4), stride=(2, 2), padding=(1, 1), bias=False)
    (3): BatchNorm2d(128, eps=1e-05, momentum=0.1, affine=True, track_running_stats=True)
    (4): LeakyReLU(negative_slope=0.2, inplace=True)
    (5): Conv2d(128, 256, kernel_size=(4, 4), stride=(2, 2), padding=(1, 1), bias=False)
    (6): BatchNorm2d(256, eps=1e-05, momentum=0.1, affine=True, track_running_stats=True)
    (7): LeakyReLU(negative_slope=0.2, inplace=True)
    (8): Conv2d(256, 512, kernel_size=(4, 4), stride=(2, 2), padding=(1, 1), bias=False)
    (9): BatchNorm2d(512, eps=1e-05, momentum=0.1, affine=True, track_running_stats=True)
    (10): LeakyReLU(negative_slope=0.2, inplace=True)
    (11): Conv2d(512, 1, kernel_size=(4, 4), stride=(1, 1), bias=False)
    (12): Sigmoid()
  )
)</code></pre>
</div>
</div>
</section>
<section id="최적화" class="level3">
<h3 class="anchored" data-anchor-id="최적화">최적화</h3>
<ul>
<li><p>손실함수로 <code>BCELoss</code><sup>1</sup> 사용</p>
<p><img src="https://latex.codecogs.com/png.latex?%5Cbegin%7Balign%7D%5Cell(x,%20y)%20=%20L%20=%20%5C%7Bl_1,%5Cdots,l_N%5C%7D%5E%5Ctop,%20%5Cquad%20l_n%20=%20-%20%5Cleft%5B%20y_n%20%5Ccdot%20%5Clog%20x_n%20+%20(1%20-%20y_n)%20%5Ccdot%20%5Clog%20(1%20-%20x_n)%20%5Cright%5D%5Cend%7Balign%7D"></p>
…
