…
       nn.ReLU(True),\n\n            # 위의 계층을 통과한 데이터의 크기. ``(ngf*2) x 16 x 16``\n            nn.ConvTranspose2d( ngf * 2, ngf, 4, 2, 1, bias=False),\n            nn.BatchNorm2d(ngf),\n            nn.ReLU(True),\n\n            # 위의 계층을 통과한 데이터의 크기. ``(ngf) x 32 x 32``\n            nn.ConvTranspose2d( ngf, nc, 4, 2, 1, bias=False),\n            nn.Tanh()\n        )\n    \n    def forward(self, input):\n        return self.main(input)\n\n\nnetG = Generator(ngpu).to(device)\n\n# 모든 가중치의 평균을 0, 분산을 0.02로 초기화\nnetG.apply(weights_init)\n\n# 모델 구조 확인\nnetG\n\nGenerator(\n  (main): Sequential(\n    (0): ConvTranspose2d(100, 512, kernel_size=(4, 4), stride=(1, 1))\n    (1): BatchNorm2d(512, eps=1e-05, momentum=0.1, affine=True, track_running_stats=True)\n    (2): ReLU(inplace=True)\n    (3): ConvTranspose2d(512, 256, kernel_size=(4, 4), stride=(2, 2), padding=(1, 1), bias=False)\n    (4): BatchNorm2d(256, eps=1e-05, momentum=0.1, affine=True, track_running_stats=True)\n    (5): ReLU(inplace=True)\n    (6): ConvTranspose2d(256, 128, kernel_size=(4, 4), stride=(2, 2), padding=(1, 1), bias=False)\n    (7): BatchNorm2d(128, eps=1e-05, momentum=0.1, affine=True, track_running_stats=True)\n    (8): ReLU(inplace=True)\n    (9): ConvTranspose2d(128, 64, kernel_size=(4, 4), stride=(2, 2), padding=(1, 1), bias=False)\n    (10): BatchNorm2d(64, eps=1e-05, momentum=0.1, affine=True, track_running_stats=True)\n    (11): ReLU(inplace=True)\n    (12): ConvTranspose2d(64, 3, kernel_size=(4, 4), stride=(2, 2), padding=(1, 1), bias=False)\n    (13): Tanh()\n  )\n)\n\n\n\n\n\n\n\n입력: \\(3 \\times 64 \\times 64\\)\nConv2d, BatchNorm2d, LeakyReLU로 데이터를 가공\n\nstride를 합성곱 계층에서 적용하는데 논문에서는 스스로 pooling을 학습하기 때문에 pooling 계층을 넣지 않아도 효과가 좋았다고 한다.\n\n마지막 계층 Sigmoid로 확률값 반환\n\n\nclass Discriminator(nn.Module):\n    def __init__(self, ngpu):\n        super(Discriminator, self
…
n.LeakyReLU(0.2, inplace=True),\n            \n            # 위의 계층을 통과한 데이터의 크기. ``(ndf*4) x 8 x 8``\n            nn.Conv2d(ndf * 4, ndf * 8, 4, 2, 1, bias=False),\n            nn.BatchNorm2d(ndf * 8),\n            nn.LeakyReLU(0.2, inplace=True),\n            \n            # 위의 계층을 통과한 데이터의 크기. ``(ndf*8) x 4 x 4``\n            nn.Conv2d(ndf * 8, 1, 4, 1, 0, bias=False),\n            nn.Sigmoid()\n        )\n\n    def forward(self, input):\n        return self.main(input)\n\n\nnetD = Discriminator(ngpu).to(device)\nnetD.apply(weights_init)\nnetD\n\nDiscriminator(\n  (main): Sequential(\n    (0): Conv2d(3, 64, kernel_size=(4, 4), stride=(2, 2), padding=(1, 1), bias=False)\n    (1): LeakyReLU(negative_slope=0.2, inplace=True)\n    (2): Conv2d(64, 128, kernel_size=(4, 4), stride=(2, 2), padding=(1, 1), bias=False)\n    (3): BatchNorm2d(128, eps=1e-05, momentum=0.1, affine=True, track_running_stats=True)\n    (4): LeakyReLU(negative_slope=0.2, inplace=True)\n    (5): Conv2d(128, 256, kernel_size=(4, 4), stride=(2, 2), padding=(1, 1), bias=False)\n    (6): BatchNorm2d(256, eps=1e-05, momentum=0.1, affine=True, track_running_stats=True)\n    (7): LeakyReLU(negative_slope=0.2, inplace=True)\n    (8): Conv2d(256, 512, kernel_size=(4, 4), stride=(2, 2), padding=(1, 1), bias=False)\n    (9): BatchNorm2d(512, eps=1e-05, momentum=0.1, affine=True, track_running_stats=True)\n    (10): LeakyReLU(negative_slope=0.2, inplace=True)\n    (11): Conv2d(512, 1, kernel_size=(4, 4), stride=(1, 1), bias=False)\n    (12): Sigmoid()\n  )\n)\n\n\n\n\n\n\n손실함수로 BCELoss1 사용\n\\(\\begin{align}\\ell(x, y) = L = \\{l_1,\\dots,l_N\\}^\\top, \\quad l_n = - \\left[ y_n \\cdot \\log x_n + (1 - y_n) \\cdot \\log (1 - x_n) \\right]\\end{align}\\)\n\n여기서 조정해야하는 \\(log(D(x))\\) 와 \\(log(1 - D(G(Z)))\\) 를 확인할 수 있다.\n\n\n\n목표: \\(y\\)를 이용하여 손실함수를 최대화하는 방법 찾기\n\n\ncri
…
